…
[2024-09-28 17:39:48,551 INFO] Building shard 0.
[2024-09-28 17:39:48,551 INFO]  * saving 0th valid data shard to /storage/homefs/yc24j783/datacat4ml/datacat4ml/Scripts/model_dev/enztrans_test/data/ki_mor_1_gpu_trainstep10000/preprocessed_data.valid.0.pt.
[2024-09-28 17:39:49,519 INFO]  * src vocab size = 214
[2024-09-28 17:39:49,519 INFO]  * tgt vocab size = 214
[2024-09-28 17:39:49,519 INFO] Building model...
[2024-09-28 17:39:50,239 INFO] NMTModel(
  (encoder): TransformerEncoder(
    (embeddings): Embeddings(
      (make_embedding): Sequential(
        (emb_luts): Elementwise(
          (0): Embedding(214, 384, padding_idx=1)
        )
        (pe): PositionalEncoding(
          (dropout): Dropout(p=0.1, inplace=False)
        )
      )
    )
    (transformer): ModuleList(
      (0): TransformerEncoderLayer(
        (self_attn): MultiHeadedAttention(
          (linear_keys): Linear(in_features=384, out_features=384, bias=True)
          (linear_values): Linear(in_features=384, out_features=384, bias=True)
          (linear_query): Linear(in_features=384, out_features=384, bias=True)
          (softmax): Softmax(dim=-1)
          (dropout): Dropout(p=0.1, inplace=False)
          (final_linear): Linear(in_features=384, out_features=384, bias=True)
        )
        (feed_forward): PositionwiseFeedForward(
          (w_1): Linear(in_features=384, out_features=2048, bias=True)
          (w_2): Linear(in_features=2048, out_features=384, bias=True)
          (layer_norm): LayerNorm((384,), eps=1e-06, elementwise_affine=True)
          (dropout_1): Dropout(p=0.1, inplace=False)
          (relu): ReLU()
          (dropout_2): Dropout(p=0.1, inplace=False)
        )
        (layer_norm): LayerNorm((384,), eps=1e-06, elementwise_affine=True)
        (dropout): Dropout(p=0.1, inplace=False)
      )
      (1): TransformerEncoderLayer(
        (self_attn): MultiHeadedAttention(
          (linear_keys): Linear(in_features=384, out_features=384, bias=True)
          (linear_values): Linear(in_features=384, out_features=384, bias=True)
          (linear_query): Linear(in_features=384, out_features=384, bias=True)
          (softmax): Softmax(dim=-1)
          (dropout): Dropout(p=0.1, inplace=False)
          (final_linear): Linear(in_features=384, out_features=384, bias=True)
        )
        (feed_forward): PositionwiseFeedForward(
          (w_1): Linear(in_features=384, out_features=2048, bias=True)
          (w_2): Linear(in_features=2048, out_features=384, bias=True)
          (layer_norm): LayerNorm((384,), eps=1e-06, elementwise_affine=True)
          (dropout_1): Dropout(p=0.1, inplace=False)
          (relu): ReLU()
          (dropout_2): Dropout(p=0.1, inplace=False)
        )
        (layer_norm): LayerNorm((384,), eps=1e-06, elementwise_affine=True)
        (dropout): Dropout(p=0.1, inplace=False)
      )
      (2): TransformerEncoderLayer(
        (self_attn): MultiHeadedAttention(
          (linear_keys): Linear(in_features=384, out_features=384, bias=True)
          (linear_values): Linear(in_features=384, out_features=384, bias=True)
          (linear_query): Linear(in_features=384, out_features=384, bias=True)
          (softmax): Softmax(dim=-1)
          (dropout): Dropout(p=0.1, inplace=False)
          (final_linear): Linear(in_features=384, out_features=384, bias=True)
        )
        (feed_forward): PositionwiseFeedForward(
          (w_1): Linear(in_features=384, out_features=2048, bias=True)
          (w_2): Linear(in_features=2048, out_features=384, bias=True)
          (layer_norm): LayerNorm((384,), eps=1e-06, elementwise_affine=True)
          (dropout_1): Dropout(p=0.1, inplace=False)
          (relu): ReLU()
          (dropout_2): Dropout(p=0.1, inplace=False)
        )
        (layer_norm): LayerNorm((384,), eps=1e-06, elementwise_affine=True)
        (dropout): Dropout(p=0.1, inplace=False)
      )
      (3): TransformerEncoderLayer(
        (self_attn): MultiHeadedAttention(
          (linear_keys): Linear(in_features=384, out_features=384, bias=True)
          (linear_values): Linear(in_features=384, out_features=384, bias=True)
          (linear_query): Linear(in_features=384, out_features=384, bias=True)
          (softmax): Softmax(dim=-1)
          (dropout): Dropout(p=0.1, inplace=False)
          (final_linear): Linear(in_features=384, out_features=384, bias=True)
        )
        (feed_forward): PositionwiseFeedForward(
          (w_1): Linear(in_features=384, out_features=2048, bias=True)
          (w_2): Linear(in_features=2048, out_features=384, bias=True)
          (layer_norm): LayerNorm((384,), eps=1e-06, elementwise_affine=True)
          (dropout_1): Dropout(p=0.1, inplace=False)
          (relu): ReLU()
          (dropout_2): Dropout(p=0.1, inplace=False)
        )
        (layer_norm): LayerNorm((384,), eps=1e-06, elementwise_affine=True)
        (dropout): Dropout(p=0.1, inplace=False)
      )
    )
    (layer_norm): LayerNorm((384,), eps=1e-06, elementwise_affine=True)
  )
  (decoder): TransformerDecoder(
    (embeddings): Embeddings(
      (make_embedding): Sequential(
        (emb_luts): Elementwise(
          (0): Embedding(214, 384, padding_idx=1)
        )
        (pe): PositionalEncoding(
          (dropout): Dropout(p=0.1, inplace=False)
        )
      )
    )
    (transformer_layers): ModuleList(
      (0): TransformerDecoderLayer(
        (self_attn): MultiHeadedAttention(
          (linear_keys): Linear(in_features=384, out_features=384, bias=True)
          (linear_values): Linear(in_features=384, out_features=384, bias=True)
          (linear_query): Linear(in_features=384, out_features=384, bias=True)
          (softmax): Softmax(dim=-1)
          (dropout): Dropout(p=0.1, inplace=False)
          (final_linear): Linear(in_features=384, out_features=384, bias=True)
        )
        (context_attn): MultiHeadedAttention(
          (linear_keys): Linear(in_features=384, out_features=384, bias=True)
          (linear_values): Linear(in_features=384, out_features=384, bias=True)
          (linear_query): Linear(in_features=384, out_features=384, bias=True)
          (softmax): Softmax(dim=-1)
          (dropout): Dropout(p=0.1, inplace=False)
          (final_linear): Linear(in_features=384, out_features=384, bias=True)
        )
        (feed_forward): PositionwiseFeedForward(
          (w_1): Linear(in_features=384, out_features=2048, bias=True)
          (w_2): Linear(in_features=2048, out_features=384, bias=True)
          (layer_norm): LayerNorm((384,), eps=1e-06, elementwise_affine=True)
          (dropout_1): Dropout(p=0.1, inplace=False)
          (relu): ReLU()
          (dropout_2): Dropout(p=0.1, inplace=False)
        )
        (layer_norm_1): LayerNorm((384,), eps=1e-06, elementwise_affine=True)
        (layer_norm_2): LayerNorm((384,), eps=1e-06, elementwise_affine=True)
        (drop): Dropout(p=0.1, inplace=False)
      )
      (1): TransformerDecoderLayer(
        (self_attn): MultiHeadedAttention(
          (linear_keys): Linear(in_features=384, out_features=384, bias=True)
          (linear_values): Linear(in_features=384, out_features=384, bias=True)
          (linear_query): Linear(in_features=384, out_features=384, bias=True)
          (softmax): Softmax(dim=-1)
          (dropout): Dropout(p=0.1, inplace=False)
          (final_linear): Linear(in_features=384, out_features=384, bias=True)
        )
        (context_attn): MultiHeadedAttention(
          (linear_keys): Linear(in_features=384, out_features=384, bias=True)
          (linear_values): Linear(in_features=384, out_features=384, bias=True)
          (linear_query): Linear(in_features=384, out_features=384, bias=True)
          (softmax): Softmax(dim=-1)
          (dropout): Dropout(p=0.1, inplace=False)
          (final_linear): Linear(in_features=384, out_features=384, bias=True)
        )
        (feed_forward): PositionwiseFeedForward(
          (w_1): Linear(in_features=384, out_features=2048, bias=True)
          (w_2): Linear(in_features=2048, out_features=384, bias=True)
          (layer_norm): LayerNorm((384,), eps=1e-06, elementwise_affine=True)
          (dropout_1): Dropout(p=0.1, inplace=False)
          (relu): ReLU()
          (dropout_2): Dropout(p=0.1, inplace=False)
        )
        (layer_norm_1): LayerNorm((384,), eps=1e-06, elementwise_affine=True)
        (layer_norm_2): LayerNorm((384,), eps=1e-06, elementwise_affine=True)
        (drop): Dropout(p=0.1, inplace=False)
      )
      (2): TransformerDecoderLayer(
        (self_attn): MultiHeadedAttention(
          (linear_keys): Linear(in_features=384, out_features=384, bias=True)
          (linear_values): Linear(in_features=384, out_features=384, bias=True)
          (linear_query): Linear(in_features=384, out_features=384, bias=True)
          (softmax): Softmax(dim=-1)
          (dropout): Dropout(p=0.1, inplace=False)
          (final_linear): Linear(in_features=384, out_features=384, bias=True)
        )
        (context_attn): MultiHeadedAttention(
          (linear_keys): Linear(in_features=384, out_features=384, bias=True)
          (linear_values): Linear(in_features=384, out_features=384, bias=True)
          (linear_query): Linear(in_features=384, out_features=384, bias=True)
          (softmax): Softmax(dim=-1)
          (dropout): Dropout(p=0.1, inplace=False)
          (final_linear): Linear(in_features=384, out_features=384, bias=True)
        )
        (feed_forward): PositionwiseFeedForward(
          (w_1): Linear(in_features=384, out_features=2048, bias=True)
          (w_2): Linear(in_features=2048, out_features=384, bias=True)
          (layer_norm): LayerNorm((384,), eps=1e-06, elementwise_affine=True)
          (dropout_1): Dropout(p=0.1, inplace=False)
          (relu): ReLU()
          (dropout_2): Dropout(p=0.1, inplace=False)
        )
        (layer_norm_1): LayerNorm((384,), eps=1e-06, elementwise_affine=True)
        (layer_norm_2): LayerNorm((384,), eps=1e-06, elementwise_affine=True)
        (drop): Dropout(p=0.1, inplace=False)
      )
      (3): TransformerDecoderLayer(
        (self_attn): MultiHeadedAttention(
          (linear_keys): Linear(in_features=384, out_features=384, bias=True)
          (linear_values): Linear(in_features=384, out_features=384, bias=True)
          (linear_query): Linear(in_features=384, out_features=384, bias=True)
          (softmax): Softmax(dim=-1)
          (dropout): Dropout(p=0.1, inplace=False)
          (final_linear): Linear(in_features=384, out_features=384, bias=True)
        )
        (context_attn): MultiHeadedAttention(
          (linear_keys): Linear(in_features=384, out_features=384, bias=True)
          (linear_values): Linear(in_features=384, out_features=384, bias=True)
          (linear_query): Linear(in_features=384, out_features=384, bias=True)
          (softmax): Softmax(dim=-1)
          (dropout): Dropout(p=0.1, inplace=False)
          (final_linear): Linear(in_features=384, out_features=384, bias=True)
        )
        (feed_forward): PositionwiseFeedForward(
          (w_1): Linear(in_features=384, out_features=2048, bias=True)
          (w_2): Linear(in_features=2048, out_features=384, bias=True)
          (layer_norm): LayerNorm((384,), eps=1e-06, elementwise_affine=True)
          (dropout_1): Dropout(p=0.1, inplace=False)
          (relu): ReLU()
          (dropout_2): Dropout(p=0.1, inplace=False)
        )
        (layer_norm_1): LayerNorm((384,), eps=1e-06, elementwise_affine=True)
        (layer_norm_2): LayerNorm((384,), eps=1e-06, elementwise_affine=True)
        (drop): Dropout(p=0.1, inplace=False)
      )
    )
    (layer_norm): LayerNorm((384,), eps=1e-06, elementwise_affine=True)
  )
  (generator): Sequential(
    (0): Linear(in_features=384, out_features=214, bias=True)
    (1): Cast()
    (2): LogSoftmax(dim=-1)
  )
)
[2024-09-28 17:39:50,242 INFO] encoder: 8755712
[2024-09-28 17:39:50,242 INFO] decoder: 11206614
[2024-09-28 17:39:50,242 INFO] * number of parameters: 19962326
[2024-09-28 17:39:50,336 INFO] Starting training on GPU: [0]
[2024-09-28 17:39:50,336 INFO] Start training loop and validate every 5000 steps...
…
