…
[2024-09-28 17:29:15,778 WARNING] Shards for corpus train already exist, won't be overwritten, pass the `-overwrite` option if you want to.
[2024-09-28 17:29:15,778 INFO] Building & saving validation data...
[2024-09-28 17:29:15,778 WARNING] Shards for corpus valid already exist, won't be overwritten, pass the `-overwrite` option if you want to.
[2024-09-28 17:29:16,841 INFO]  * src vocab size = 214
[2024-09-28 17:29:16,841 INFO]  * tgt vocab size = 214
[2024-09-28 17:29:16,842 INFO] Building model...
[2024-09-28 17:29:20,201 INFO] NMTModel(
  (encoder): TransformerEncoder(
    (embeddings): Embeddings(
      (make_embedding): Sequential(
        (emb_luts): Elementwise(
          (0): Embedding(214, 384, padding_idx=1)
        )
        (pe): PositionalEncoding(
          (dropout): Dropout(p=0.1, inplace=False)
        )
      )
    )
    (transformer): ModuleList(
      (0): TransformerEncoderLayer(
        (self_attn): MultiHeadedAttention(
          (linear_keys): Linear(in_features=384, out_features=384, bias=True)
          (linear_values): Linear(in_features=384, out_features=384, bias=True)
          (linear_query): Linear(in_features=384, out_features=384, bias=True)
          (softmax): Softmax(dim=-1)
          (dropout): Dropout(p=0.1, inplace=False)
          (final_linear): Linear(in_features=384, out_features=384, bias=True)
        )
        (feed_forward): PositionwiseFeedForward(
          (w_1): Linear(in_features=384, out_features=2048, bias=True)
          (w_2): Linear(in_features=2048, out_features=384, bias=True)
          (layer_norm): LayerNorm((384,), eps=1e-06, elementwise_affine=True)
          (dropout_1): Dropout(p=0.1, inplace=False)
          (relu): ReLU()
          (dropout_2): Dropout(p=0.1, inplace=False)
        )
        (layer_norm): LayerNorm((384,), eps=1e-06, elementwise_affine=True)
        (dropout): Dropout(p=0.1, inplace=False)
      )
      (1): TransformerEncoderLayer(
        (self_attn): MultiHeadedAttention(
          (linear_keys): Linear(in_features=384, out_features=384, bias=True)
          (linear_values): Linear(in_features=384, out_features=384, bias=True)
          (linear_query): Linear(in_features=384, out_features=384, bias=True)
          (softmax): Softmax(dim=-1)
          (dropout): Dropout(p=0.1, inplace=False)
          (final_linear): Linear(in_features=384, out_features=384, bias=True)
        )
        (feed_forward): PositionwiseFeedForward(
          (w_1): Linear(in_features=384, out_features=2048, bias=True)
          (w_2): Linear(in_features=2048, out_features=384, bias=True)
          (layer_norm): LayerNorm((384,), eps=1e-06, elementwise_affine=True)
          (dropout_1): Dropout(p=0.1, inplace=False)
          (relu): ReLU()
          (dropout_2): Dropout(p=0.1, inplace=False)
        )
        (layer_norm): LayerNorm((384,), eps=1e-06, elementwise_affine=True)
        (dropout): Dropout(p=0.1, inplace=False)
      )
      (2): TransformerEncoderLayer(
        (self_attn): MultiHeadedAttention(
          (linear_keys): Linear(in_features=384, out_features=384, bias=True)
          (linear_values): Linear(in_features=384, out_features=384, bias=True)
          (linear_query): Linear(in_features=384, out_features=384, bias=True)
          (softmax): Softmax(dim=-1)
          (dropout): Dropout(p=0.1, inplace=False)
          (final_linear): Linear(in_features=384, out_features=384, bias=True)
        )
        (feed_forward): PositionwiseFeedForward(
          (w_1): Linear(in_features=384, out_features=2048, bias=True)
          (w_2): Linear(in_features=2048, out_features=384, bias=True)
          (layer_norm): LayerNorm((384,), eps=1e-06, elementwise_affine=True)
          (dropout_1): Dropout(p=0.1, inplace=False)
          (relu): ReLU()
          (dropout_2): Dropout(p=0.1, inplace=False)
        )
        (layer_norm): LayerNorm((384,), eps=1e-06, elementwise_affine=True)
        (dropout): Dropout(p=0.1, inplace=False)
      )
      (3): TransformerEncoderLayer(
        (self_attn): MultiHeadedAttention(
          (linear_keys): Linear(in_features=384, out_features=384, bias=True)
          (linear_values): Linear(in_features=384, out_features=384, bias=True)
          (linear_query): Linear(in_features=384, out_features=384, bias=True)
          (softmax): Softmax(dim=-1)
          (dropout): Dropout(p=0.1, inplace=False)
          (final_linear): Linear(in_features=384, out_features=384, bias=True)
        )
        (feed_forward): PositionwiseFeedForward(
          (w_1): Linear(in_features=384, out_features=2048, bias=True)
          (w_2): Linear(in_features=2048, out_features=384, bias=True)
          (layer_norm): LayerNorm((384,), eps=1e-06, elementwise_affine=True)
          (dropout_1): Dropout(p=0.1, inplace=False)
          (relu): ReLU()
          (dropout_2): Dropout(p=0.1, inplace=False)
        )
        (layer_norm): LayerNorm((384,), eps=1e-06, elementwise_affine=True)
        (dropout): Dropout(p=0.1, inplace=False)
      )
    )
    (layer_norm): LayerNorm((384,), eps=1e-06, elementwise_affine=True)
  )
  (decoder): TransformerDecoder(
    (embeddings): Embeddings(
      (make_embedding): Sequential(
        (emb_luts): Elementwise(
          (0): Embedding(214, 384, padding_idx=1)
        )
        (pe): PositionalEncoding(
          (dropout): Dropout(p=0.1, inplace=False)
        )
      )
    )
    (transformer_layers): ModuleList(
      (0): TransformerDecoderLayer(
        (self_attn): MultiHeadedAttention(
          (linear_keys): Linear(in_features=384, out_features=384, bias=True)
          (linear_values): Linear(in_features=384, out_features=384, bias=True)
          (linear_query): Linear(in_features=384, out_features=384, bias=True)
          (softmax): Softmax(dim=-1)
          (dropout): Dropout(p=0.1, inplace=False)
          (final_linear): Linear(in_features=384, out_features=384, bias=True)
        )
        (context_attn): MultiHeadedAttention(
          (linear_keys): Linear(in_features=384, out_features=384, bias=True)
          (linear_values): Linear(in_features=384, out_features=384, bias=True)
          (linear_query): Linear(in_features=384, out_features=384, bias=True)
          (softmax): Softmax(dim=-1)
          (dropout): Dropout(p=0.1, inplace=False)
          (final_linear): Linear(in_features=384, out_features=384, bias=True)
        )
        (feed_forward): PositionwiseFeedForward(
          (w_1): Linear(in_features=384, out_features=2048, bias=True)
          (w_2): Linear(in_features=2048, out_features=384, bias=True)
          (layer_norm): LayerNorm((384,), eps=1e-06, elementwise_affine=True)
          (dropout_1): Dropout(p=0.1, inplace=False)
          (relu): ReLU()
          (dropout_2): Dropout(p=0.1, inplace=False)
        )
        (layer_norm_1): LayerNorm((384,), eps=1e-06, elementwise_affine=True)
        (layer_norm_2): LayerNorm((384,), eps=1e-06, elementwise_affine=True)
        (drop): Dropout(p=0.1, inplace=False)
      )
      (1): TransformerDecoderLayer(
        (self_attn): MultiHeadedAttention(
          (linear_keys): Linear(in_features=384, out_features=384, bias=True)
          (linear_values): Linear(in_features=384, out_features=384, bias=True)
          (linear_query): Linear(in_features=384, out_features=384, bias=True)
          (softmax): Softmax(dim=-1)
          (dropout): Dropout(p=0.1, inplace=False)
          (final_linear): Linear(in_features=384, out_features=384, bias=True)
        )
        (context_attn): MultiHeadedAttention(
          (linear_keys): Linear(in_features=384, out_features=384, bias=True)
          (linear_values): Linear(in_features=384, out_features=384, bias=True)
          (linear_query): Linear(in_features=384, out_features=384, bias=True)
          (softmax): Softmax(dim=-1)
          (dropout): Dropout(p=0.1, inplace=False)
          (final_linear): Linear(in_features=384, out_features=384, bias=True)
        )
        (feed_forward): PositionwiseFeedForward(
          (w_1): Linear(in_features=384, out_features=2048, bias=True)
          (w_2): Linear(in_features=2048, out_features=384, bias=True)
          (layer_norm): LayerNorm((384,), eps=1e-06, elementwise_affine=True)
          (dropout_1): Dropout(p=0.1, inplace=False)
          (relu): ReLU()
          (dropout_2): Dropout(p=0.1, inplace=False)
        )
        (layer_norm_1): LayerNorm((384,), eps=1e-06, elementwise_affine=True)
        (layer_norm_2): LayerNorm((384,), eps=1e-06, elementwise_affine=True)
        (drop): Dropout(p=0.1, inplace=False)
      )
      (2): TransformerDecoderLayer(
        (self_attn): MultiHeadedAttention(
          (linear_keys): Linear(in_features=384, out_features=384, bias=True)
          (linear_values): Linear(in_features=384, out_features=384, bias=True)
          (linear_query): Linear(in_features=384, out_features=384, bias=True)
          (softmax): Softmax(dim=-1)
          (dropout): Dropout(p=0.1, inplace=False)
          (final_linear): Linear(in_features=384, out_features=384, bias=True)
        )
        (context_attn): MultiHeadedAttention(
          (linear_keys): Linear(in_features=384, out_features=384, bias=True)
          (linear_values): Linear(in_features=384, out_features=384, bias=True)
          (linear_query): Linear(in_features=384, out_features=384, bias=True)
          (softmax): Softmax(dim=-1)
          (dropout): Dropout(p=0.1, inplace=False)
          (final_linear): Linear(in_features=384, out_features=384, bias=True)
        )
        (feed_forward): PositionwiseFeedForward(
          (w_1): Linear(in_features=384, out_features=2048, bias=True)
          (w_2): Linear(in_features=2048, out_features=384, bias=True)
          (layer_norm): LayerNorm((384,), eps=1e-06, elementwise_affine=True)
          (dropout_1): Dropout(p=0.1, inplace=False)
          (relu): ReLU()
          (dropout_2): Dropout(p=0.1, inplace=False)
        )
        (layer_norm_1): LayerNorm((384,), eps=1e-06, elementwise_affine=True)
        (layer_norm_2): LayerNorm((384,), eps=1e-06, elementwise_affine=True)
        (drop): Dropout(p=0.1, inplace=False)
      )
      (3): TransformerDecoderLayer(
        (self_attn): MultiHeadedAttention(
          (linear_keys): Linear(in_features=384, out_features=384, bias=True)
          (linear_values): Linear(in_features=384, out_features=384, bias=True)
          (linear_query): Linear(in_features=384, out_features=384, bias=True)
          (softmax): Softmax(dim=-1)
          (dropout): Dropout(p=0.1, inplace=False)
          (final_linear): Linear(in_features=384, out_features=384, bias=True)
        )
        (context_attn): MultiHeadedAttention(
          (linear_keys): Linear(in_features=384, out_features=384, bias=True)
          (linear_values): Linear(in_features=384, out_features=384, bias=True)
          (linear_query): Linear(in_features=384, out_features=384, bias=True)
          (softmax): Softmax(dim=-1)
          (dropout): Dropout(p=0.1, inplace=False)
          (final_linear): Linear(in_features=384, out_features=384, bias=True)
        )
        (feed_forward): PositionwiseFeedForward(
          (w_1): Linear(in_features=384, out_features=2048, bias=True)
          (w_2): Linear(in_features=2048, out_features=384, bias=True)
          (layer_norm): LayerNorm((384,), eps=1e-06, elementwise_affine=True)
          (dropout_1): Dropout(p=0.1, inplace=False)
          (relu): ReLU()
          (dropout_2): Dropout(p=0.1, inplace=False)
        )
        (layer_norm_1): LayerNorm((384,), eps=1e-06, elementwise_affine=True)
        (layer_norm_2): LayerNorm((384,), eps=1e-06, elementwise_affine=True)
        (drop): Dropout(p=0.1, inplace=False)
      )
    )
    (layer_norm): LayerNorm((384,), eps=1e-06, elementwise_affine=True)
  )
  (generator): Sequential(
    (0): Linear(in_features=384, out_features=214, bias=True)
    (1): Cast()
    (2): LogSoftmax(dim=-1)
  )
)
[2024-09-28 17:29:20,205 INFO] encoder: 8755712
[2024-09-28 17:29:20,205 INFO] decoder: 11206614
[2024-09-28 17:29:20,205 INFO] * number of parameters: 19962326
[2024-09-28 17:29:23,313 INFO] Starting training on GPU: [0]
[2024-09-28 17:29:23,314 INFO] Start training loop and validate every 5000 steps...
…
